{"class_name": "Sequential", "keras_version": "2.2.4-tf", "config": {"layers": [{"class_name": "Model", "config": {"layers": [{"class_name": "InputLayer", "inbound_nodes": [], "config": {"dtype": "float32", "batch_input_shape": [null, 160, 160, 3], "name": "input_1", "sparse": false}, "name": "input_1"}, {"class_name": "ZeroPadding2D", "inbound_nodes": [[["input_1", 0, 0, {}]]], "config": {"padding": [[0, 1], [0, 1]], "dtype": "float32", "trainable": false, "name": "Conv1_pad", "data_format": "channels_last"}, "name": "Conv1_pad"}, {"class_name": "Conv2D", "inbound_nodes": [[["Conv1_pad", 0, 0, {}]]], "config": {"kernel_initializer": {"class_name": "GlorotUniform", "config": {"dtype": "float32", "seed": null}}, "name": "Conv1", "kernel_constraint": null, "bias_regularizer": null, "bias_constraint": null, "dtype": "float32", "activation": "linear", "trainable": false, "data_format": "channels_last", "padding": "valid", "strides": [2, 2], "dilation_rate": [1, 1], "kernel_regularizer": null, "filters": 32, "bias_initializer": {"class_name": "Zeros", "config": {"dtype": "float32"}}, "use_bias": false, "activity_regularizer": null, "kernel_size": [3, 3]}, "name": "Conv1"}, {"class_name": "BatchNormalization", "inbound_nodes": [[["Conv1", 0, 0, {}]]], "config": {"gamma_initializer": {"class_name": "Ones", "config": {"dtype": "float32"}}, "moving_mean_initializer": {"class_name": "Zeros", "config": {"dtype": "float32"}}, "name": "bn_Conv1", "gamma_regularizer": null, "dtype": "float32", "trainable": false, "center": true, "moving_variance_initializer": {"class_name": "Ones", "config": {"dtype": "float32"}}, "beta_initializer": {"class_name": "Zeros", "config": {"dtype": "float32"}}, "scale": true, "epsilon": 0.001, "gamma_constraint": null, "beta_constraint": null, "beta_regularizer": null, "momentum": 0.999, "axis": [3]}, "name": "bn_Conv1"}, {"class_name": "ReLU", "inbound_nodes": [[["bn_Conv1", 0, 0, {}]]], "config": {"name": "Conv1_relu", "dtype": "float32", "trainable": false, "max_value": 6.0, "threshold": 0.0, "negative_slope": 0.0}, "name": "Conv1_relu"}, {"class_name": "DepthwiseConv2D", "inbound_nodes": [[["Conv1_relu", 0, 0, {}]]], "config": {"depth_multiplier": 1, "name": "expanded_conv_depthwise", "bias_regularizer": null, "bias_constraint": null, "dtype": "float32", "activation": "linear", "trainable": false, "depthwise_constraint": null, "data_format": "channels_last", "padding": "same", "strides": [1, 1], "dilation_rate": [1, 1], "depthwise_initializer": {"class_name": "GlorotUniform", "config": {"dtype": "float32", "seed": null}}, "bias_initializer": {"class_name": "Zeros", "config": {"dtype": "float32"}}, "depthwise_regularizer": null, "use_bias": false, "activity_regularizer": null, "kernel_size": [3, 3]}, "name": "expanded_conv_depthwise"}, {"class_name": "BatchNormalization", "inbound_nodes": [[["expanded_conv_depthwise", 0, 0, {}]]], "config": {"gamma_initializer": {"class_name": "Ones", "config": {"dtype": "float32"}}, "moving_mean_initializer": {"class_name": "Zeros", "config": {"dtype": "float32"}}, "name": "expanded_conv_depthwise_BN", "gamma_regularizer": null, "dtype": "float32", "trainable": false, "center": true, "moving_variance_initializer": {"class_name": "Ones", "config": {"dtype": "float32"}}, "beta_initializer": {"class_name": "Zeros", "config": {"dtype": "float32"}}, "scale": true, "epsilon": 0.001, "gamma_constraint": null, "beta_constraint": null, "beta_regularizer": null, "momentum": 0.999, "axis": [3]}, "name": "expanded_conv_depthwise_BN"}, {"class_name": "ReLU", "inbound_nodes": [[["expanded_conv_depthwise_BN", 0, 0, {}]]], "config": {"name": "expanded_conv_depthwise_relu", "dtype": "float32", "trainable": false, "max_value": 6.0, "threshold": 0.0, "negative_slope": 0.0}, "name": "expanded_conv_depthwise_relu"}, {"class_name": "Conv2D", "inbound_nodes": [[["expanded_conv_depthwise_relu", 0, 0, {}]]], "config": {"kernel_initializer": {"class_name": "GlorotUniform", "config": {"dtype": "float32", "seed": null}}, "name": "expanded_conv_project", "kernel_constraint": null, "bias_regularizer": null, "bias_constraint": null, "dtype": "float32", "activation": "linear", "trainable": false, "data_format": "channels_last", "padding": "same", "strides": [1, 1], "dilation_rate": [1, 1], "kernel_regularizer": null, "filters": 16, "bias_initializer": {"class_name": "Zeros", "config": {"dtype": "float32"}}, "use_bias": false, "activity_regularizer": null, "kernel_size": [1, 1]}, "name": "expanded_conv_project"}, {"class_name": "BatchNormalization", "inbound_nodes": [[["expanded_conv_project", 0, 0, {}]]], "config": {"gamma_initializer": {"class_name": "Ones", "config": {"dtype": "float32"}}, "moving_mean_initializer": {"class_name": "Zeros", "config": {"dtype": "float32"}}, "name": "expanded_conv_project_BN", "gamma_regularizer": null, "dtype": "float32", "trainable": false, "center": true, "moving_variance_initializer": {"class_name": "Ones", "config": {"dtype": "float32"}}, "beta_initializer": {"class_name": "Zeros", "config": {"dtype": "float32"}}, "scale": true, "epsilon": 0.001, "gamma_constraint": null, "beta_constraint": null, "beta_regularizer": null, "momentum": 0.999, "axis": [3]}, "name": "expanded_conv_project_BN"}, {"class_name": "Conv2D", "inbound_nodes": [[["expanded_conv_project_BN", 0, 0, {}]]], "config": {"kernel_initializer": {"class_name": "GlorotUniform", "config": {"dtype": "float32", "seed": null}}, "name": "block_1_expand", "kernel_constraint": null, "bias_regularizer": null, "bias_constraint": null, "dtype": "float32", "activation": "linear", "trainable": false, "data_format": "channels_last", "padding": "same", "strides": [1, 1], "dilation_rate": [1, 1], "kernel_regularizer": null, "filters": 96, "bias_initializer": {"class_name": "Zeros", "config": {"dtype": "float32"}}, "use_bias": false, "activity_regularizer": null, "kernel_size": [1, 1]}, "name": "block_1_expand"}, {"class_name": "BatchNormalization", "inbound_nodes": [[["block_1_expand", 0, 0, {}]]], "config": {"gamma_initializer": {"class_name": "Ones", "config": {"dtype": "float32"}}, "moving_mean_initializer": {"class_name": "Zeros", "config": {"dtype": "float32"}}, "name": "block_1_expand_BN", "gamma_regularizer": null, "dtype": "float32", "trainable": false, "center": true, "moving_variance_initializer": {"class_name": "Ones", "config": {"dtype": "float32"}}, "beta_initializer": {"class_name": "Zeros", "config": {"dtype": "float32"}}, "scale": true, "epsilon": 0.001, "gamma_constraint": null, "beta_constraint": null, "beta_regularizer": null, "momentum": 0.999, "axis": [3]}, "name": "block_1_expand_BN"}, {"class_name": "ReLU", "inbound_nodes": [[["block_1_expand_BN", 0, 0, {}]]], "config": {"name": "block_1_expand_relu", "dtype": "float32", "trainable": false, "max_value": 6.0, "threshold": 0.0, "negative_slope": 0.0}, "name": "block_1_expand_relu"}, {"class_name": "ZeroPadding2D", "inbound_nodes": [[["block_1_expand_relu", 0, 0, {}]]], "config": {"padding": [[0, 1], [0, 1]], "dtype": "float32", "trainable": false, "name": "block_1_pad", "data_format": "channels_last"}, "name": "block_1_pad"}, {"class_name": "DepthwiseConv2D", "inbound_nodes": [[["block_1_pad", 0, 0, {}]]], "config": {"depth_multiplier": 1, "name": "block_1_depthwise", "bias_regularizer": null, "bias_constraint": null, "dtype": "float32", "activation": "linear", "trainable": false, "depthwise_constraint": null, "data_format": "channels_last", "padding": "valid", "strides": [2, 2], "dilation_rate": [1, 1], "depthwise_initializer": {"class_name": "GlorotUniform", "config": {"dtype": "float32", "seed": null}}, "bias_initializer": {"class_name": "Zeros", "config": {"dtype": "float32"}}, "depthwise_regularizer": null, "use_bias": false, "activity_regularizer": null, "kernel_size": [3, 3]}, "name": "block_1_depthwise"}, {"class_name": "BatchNormalization", "inbound_nodes": [[["block_1_depthwise", 0, 0, {}]]], "config": {"gamma_initializer": {"class_name": "Ones", "config": {"dtype": "float32"}}, "moving_mean_initializer": {"class_name": "Zeros", "config": {"dtype": "float32"}}, "name": "block_1_depthwise_BN", "gamma_regularizer": null, "dtype": "float32", "trainable": false, "center": true, "moving_variance_initializer": {"class_name": "Ones", "config": {"dtype": "float32"}}, "beta_initializer": {"class_name": "Zeros", "config": {"dtype": "float32"}}, "scale": true, "epsilon": 0.001, "gamma_constraint": null, "beta_constraint": null, "beta_regularizer": null, "momentum": 0.999, "axis": [3]}, "name": "block_1_depthwise_BN"}, {"class_name": "ReLU", "inbound_nodes": [[["block_1_depthwise_BN", 0, 0, {}]]], "config": {"name": "block_1_depthwise_relu", "dtype": "float32", "trainable": false, "max_value": 6.0, "threshold": 0.0, "negative_slope": 0.0}, "name": "block_1_depthwise_relu"}, {"class_name": "Conv2D", "inbound_nodes": [[["block_1_depthwise_relu", 0, 0, {}]]], "config": {"kernel_initializer": {"class_name": "GlorotUniform", "config": {"dtype": "float32", "seed": null}}, "name": "block_1_project", "kernel_constraint": null, "bias_regularizer": null, "bias_constraint": null, "dtype": "float32", "activation": "linear", "trainable": false, "data_format": "channels_last", "padding": "same", "strides": [1, 1], "dilation_rate": [1, 1], "kernel_regularizer": null, "filters": 24, "bias_initializer": {"class_name": "Zeros", "config": {"dtype": "float32"}}, "use_bias": false, "activity_regularizer": null, "kernel_size": [1, 1]}, "name": "block_1_project"}, {"class_name": "BatchNormalization", "inbound_nodes": [[["block_1_project", 0, 0, {}]]], "config": {"gamma_initializer": {"class_name": "Ones", "config": {"dtype": "float32"}}, "moving_mean_initializer": {"class_name": "Zeros", "config": {"dtype": "float32"}}, "name": "block_1_project_BN", "gamma_regularizer": null, "dtype": "float32", "trainable": false, "center": true, "moving_variance_initializer": {"class_name": "Ones", "config": {"dtype": "float32"}}, "beta_initializer": {"class_name": "Zeros", "config": {"dtype": "float32"}}, "scale": true, "epsilon": 0.001, "gamma_constraint": null, "beta_constraint": null, "beta_regularizer": null, "momentum": 0.999, "axis": [3]}, "name": "block_1_project_BN"}, {"class_name": "Conv2D", "inbound_nodes": [[["block_1_project_BN", 0, 0, {}]]], "config": {"kernel_initializer": {"class_name": "GlorotUniform", "config": {"dtype": "float32", "seed": null}}, "name": "block_2_expand", "kernel_constraint": null, "bias_regularizer": null, "bias_constraint": null, "dtype": "float32", "activation": "linear", "trainable": false, "data_format": "channels_last", "padding": "same", "strides": [1, 1], "dilation_rate": [1, 1], "kernel_regularizer": null, "filters": 144, "bias_initializer": {"class_name": "Zeros", "config": {"dtype": "float32"}}, "use_bias": false, "activity_regularizer": null, "kernel_size": [1, 1]}, "name": "block_2_expand"}, {"class_name": "BatchNormalization", "inbound_nodes": [[["block_2_expand", 0, 0, {}]]], "config": {"gamma_initializer": {"class_name": "Ones", "config": {"dtype": "float32"}}, "moving_mean_initializer": {"class_name": "Zeros", "config": {"dtype": "float32"}}, "name": "block_2_expand_BN", "gamma_regularizer": null, "dtype": "float32", "trainable": false, "center": true, "moving_variance_initializer": {"class_name": "Ones", "config": {"dtype": "float32"}}, "beta_initializer": {"class_name": "Zeros", "config": {"dtype": "float32"}}, "scale": true, "epsilon": 0.001, "gamma_constraint": null, "beta_constraint": null, "beta_regularizer": null, "momentum": 0.999, "axis": [3]}, "name": "block_2_expand_BN"}, {"class_name": "ReLU", "inbound_nodes": [[["block_2_expand_BN", 0, 0, {}]]], "config": {"name": "block_2_expand_relu", "dtype": "float32", "trainable": false, "max_value": 6.0, "threshold": 0.0, "negative_slope": 0.0}, "name": "block_2_expand_relu"}, {"class_name": "DepthwiseConv2D", "inbound_nodes": [[["block_2_expand_relu", 0, 0, {}]]], "config": {"depth_multiplier": 1, "name": "block_2_depthwise", "bias_regularizer": null, "bias_constraint": null, "dtype": "float32", "activation": "linear", "trainable": false, "depthwise_constraint": null, "data_format": "channels_last", "padding": "same", "strides": [1, 1], "dilation_rate": [1, 1], "depthwise_initializer": {"class_name": "GlorotUniform", "config": {"dtype": "float32", "seed": null}}, "bias_initializer": {"class_name": "Zeros", "config": {"dtype": "float32"}}, "depthwise_regularizer": null, "use_bias": false, "activity_regularizer": null, "kernel_size": [3, 3]}, "name": "block_2_depthwise"}, {"class_name": "BatchNormalization", "inbound_nodes": [[["block_2_depthwise", 0, 0, {}]]], "config": {"gamma_initializer": {"class_name": "Ones", "config": {"dtype": "float32"}}, "moving_mean_initializer": {"class_name": "Zeros", "config": {"dtype": "float32"}}, "name": "block_2_depthwise_BN", "gamma_regularizer": null, "dtype": "float32", "trainable": false, "center": true, "moving_variance_initializer": {"class_name": "Ones", "config": {"dtype": "float32"}}, "beta_initializer": {"class_name": "Zeros", "config": {"dtype": "float32"}}, "scale": true, "epsilon": 0.001, "gamma_constraint": null, "beta_constraint": null, "beta_regularizer": null, "momentum": 0.999, "axis": [3]}, "name": "block_2_depthwise_BN"}, {"class_name": "ReLU", "inbound_nodes": [[["block_2_depthwise_BN", 0, 0, {}]]], "config": {"name": "block_2_depthwise_relu", "dtype": "float32", "trainable": false, "max_value": 6.0, "threshold": 0.0, "negative_slope": 0.0}, "name": "block_2_depthwise_relu"}, {"class_name": "Conv2D", "inbound_nodes": [[["block_2_depthwise_relu", 0, 0, {}]]], "config": {"kernel_initializer": {"class_name": "GlorotUniform", "config": {"dtype": "float32", "seed": null}}, "name": "block_2_project", "kernel_constraint": null, "bias_regularizer": null, "bias_constraint": null, "dtype": "float32", "activation": "linear", "trainable": false, "data_format": "channels_last", "padding": "same", "strides": [1, 1], "dilation_rate": [1, 1], "kernel_regularizer": null, "filters": 24, "bias_initializer": {"class_name": "Zeros", "config": {"dtype": "float32"}}, "use_bias": false, "activity_regularizer": null, "kernel_size": [1, 1]}, "name": "block_2_project"}, {"class_name": "BatchNormalization", "inbound_nodes": [[["block_2_project", 0, 0, {}]]], "config": {"gamma_initializer": {"class_name": "Ones", "config": {"dtype": "float32"}}, "moving_mean_initializer": {"class_name": "Zeros", "config": {"dtype": "float32"}}, "name": "block_2_project_BN", "gamma_regularizer": null, "dtype": "float32", "trainable": false, "center": true, "moving_variance_initializer": {"class_name": "Ones", "config": {"dtype": "float32"}}, "beta_initializer": {"class_name": "Zeros", "config": {"dtype": "float32"}}, "scale": true, "epsilon": 0.001, "gamma_constraint": null, "beta_constraint": null, "beta_regularizer": null, "momentum": 0.999, "axis": [3]}, "name": "block_2_project_BN"}, {"class_name": "Add", "inbound_nodes": [[["block_1_project_BN", 0, 0, {}], ["block_2_project_BN", 0, 0, {}]]], "config": {"dtype": "float32", "trainable": false, "name": "block_2_add"}, "name": "block_2_add"}, {"class_name": "Conv2D", "inbound_nodes": [[["block_2_add", 0, 0, {}]]], "config": {"kernel_initializer": {"class_name": "GlorotUniform", "config": {"dtype": "float32", "seed": null}}, "name": "block_3_expand", "kernel_constraint": null, "bias_regularizer": null, "bias_constraint": null, "dtype": "float32", "activation": "linear", "trainable": false, "data_format": "channels_last", "padding": "same", "strides": [1, 1], "dilation_rate": [1, 1], "kernel_regularizer": null, "filters": 144, "bias_initializer": {"class_name": "Zeros", "config": {"dtype": "float32"}}, "use_bias": false, "activity_regularizer": null, "kernel_size": [1, 1]}, "name": "block_3_expand"}, {"class_name": "BatchNormalization", "inbound_nodes": [[["block_3_expand", 0, 0, {}]]], "config": {"gamma_initializer": {"class_name": "Ones", "config": {"dtype": "float32"}}, "moving_mean_initializer": {"class_name": "Zeros", "config": {"dtype": "float32"}}, "name": "block_3_expand_BN", "gamma_regularizer": null, "dtype": "float32", "trainable": false, "center": true, "moving_variance_initializer": {"class_name": "Ones", "config": {"dtype": "float32"}}, "beta_initializer": {"class_name": "Zeros", "config": {"dtype": "float32"}}, "scale": true, "epsilon": 0.001, "gamma_constraint": null, "beta_constraint": null, "beta_regularizer": null, "momentum": 0.999, "axis": [3]}, "name": "block_3_expand_BN"}, {"class_name": "ReLU", "inbound_nodes": [[["block_3_expand_BN", 0, 0, {}]]], "config": {"name": "block_3_expand_relu", "dtype": "float32", "trainable": false, "max_value": 6.0, "threshold": 0.0, "negative_slope": 0.0}, "name": "block_3_expand_relu"}, {"class_name": "ZeroPadding2D", "inbound_nodes": [[["block_3_expand_relu", 0, 0, {}]]], "config": {"padding": [[0, 1], [0, 1]], "dtype": "float32", "trainable": false, "name": "block_3_pad", "data_format": "channels_last"}, "name": "block_3_pad"}, {"class_name": "DepthwiseConv2D", "inbound_nodes": [[["block_3_pad", 0, 0, {}]]], "config": {"depth_multiplier": 1, "name": "block_3_depthwise", "bias_regularizer": null, "bias_constraint": null, "dtype": "float32", "activation": "linear", "trainable": false, "depthwise_constraint": null, "data_format": "channels_last", "padding": "valid", "strides": [2, 2], "dilation_rate": [1, 1], "depthwise_initializer": {"class_name": "GlorotUniform", "config": {"dtype": "float32", "seed": null}}, "bias_initializer": {"class_name": "Zeros", "config": {"dtype": "float32"}}, "depthwise_regularizer": null, "use_bias": false, "activity_regularizer": null, "kernel_size": [3, 3]}, "name": "block_3_depthwise"}, {"class_name": "BatchNormalization", "inbound_nodes": [[["block_3_depthwise", 0, 0, {}]]], "config": {"gamma_initializer": {"class_name": "Ones", "config": {"dtype": "float32"}}, "moving_mean_initializer": {"class_name": "Zeros", "config": {"dtype": "float32"}}, "name": "block_3_depthwise_BN", "gamma_regularizer": null, "dtype": "float32", "trainable": false, "center": true, "moving_variance_initializer": {"class_name": "Ones", "config": {"dtype": "float32"}}, "beta_initializer": {"class_name": "Zeros", "config": {"dtype": "float32"}}, "scale": true, "epsilon": 0.001, "gamma_constraint": null, "beta_constraint": null, "beta_regularizer": null, "momentum": 0.999, "axis": [3]}, "name": "block_3_depthwise_BN"}, {"class_name": "ReLU", "inbound_nodes": [[["block_3_depthwise_BN", 0, 0, {}]]], "config": {"name": "block_3_depthwise_relu", "dtype": "float32", "trainable": false, "max_value": 6.0, "threshold": 0.0, "negative_slope": 0.0}, "name": "block_3_depthwise_relu"}, {"class_name": "Conv2D", "inbound_nodes": [[["block_3_depthwise_relu", 0, 0, {}]]], "config": {"kernel_initializer": {"class_name": "GlorotUniform", "config": {"dtype": "float32", "seed": null}}, "name": "block_3_project", "kernel_constraint": null, "bias_regularizer": null, "bias_constraint": null, "dtype": "float32", "activation": "linear", "trainable": false, "data_format": "channels_last", "padding": "same", "strides": [1, 1], "dilation_rate": [1, 1], "kernel_regularizer": null, "filters": 32, "bias_initializer": {"class_name": "Zeros", "config": {"dtype": "float32"}}, "use_bias": false, "activity_regularizer": null, "kernel_size": [1, 1]}, "name": "block_3_project"}, {"class_name": "BatchNormalization", "inbound_nodes": [[["block_3_project", 0, 0, {}]]], "config": {"gamma_initializer": {"class_name": "Ones", "config": {"dtype": "float32"}}, "moving_mean_initializer": {"class_name": "Zeros", "config": {"dtype": "float32"}}, "name": "block_3_project_BN", "gamma_regularizer": null, "dtype": "float32", "trainable": false, "center": true, "moving_variance_initializer": {"class_name": "Ones", "config": {"dtype": "float32"}}, "beta_initializer": {"class_name": "Zeros", "config": {"dtype": "float32"}}, "scale": true, "epsilon": 0.001, "gamma_constraint": null, "beta_constraint": null, "beta_regularizer": null, "momentum": 0.999, "axis": [3]}, "name": "block_3_project_BN"}, {"class_name": "Conv2D", "inbound_nodes": [[["block_3_project_BN", 0, 0, {}]]], "config": {"kernel_initializer": {"class_name": "GlorotUniform", "config": {"dtype": "float32", "seed": null}}, "name": "block_4_expand", "kernel_constraint": null, "bias_regularizer": null, "bias_constraint": null, "dtype": "float32", "activation": "linear", "trainable": false, "data_format": "channels_last", "padding": "same", "strides": [1, 1], "dilation_rate": [1, 1], "kernel_regularizer": null, "filters": 192, "bias_initializer": {"class_name": "Zeros", "config": {"dtype": "float32"}}, "use_bias": false, "activity_regularizer": null, "kernel_size": [1, 1]}, "name": "block_4_expand"}, {"class_name": "BatchNormalization", "inbound_nodes": [[["block_4_expand", 0, 0, {}]]], "config": {"gamma_initializer": {"class_name": "Ones", "config": {"dtype": "float32"}}, "moving_mean_initializer": {"class_name": "Zeros", "config": {"dtype": "float32"}}, "name": "block_4_expand_BN", "gamma_regularizer": null, "dtype": "float32", "trainable": false, "center": true, "moving_variance_initializer": {"class_name": "Ones", "config": {"dtype": "float32"}}, "beta_initializer": {"class_name": "Zeros", "config": {"dtype": "float32"}}, "scale": true, "epsilon": 0.001, "gamma_constraint": null, "beta_constraint": null, "beta_regularizer": null, "momentum": 0.999, "axis": [3]}, "name": "block_4_expand_BN"}, {"class_name": "ReLU", "inbound_nodes": [[["block_4_expand_BN", 0, 0, {}]]], "config": {"name": "block_4_expand_relu", "dtype": "float32", "trainable": false, "max_value": 6.0, "threshold": 0.0, "negative_slope": 0.0}, "name": "block_4_expand_relu"}, {"class_name": "DepthwiseConv2D", "inbound_nodes": [[["block_4_expand_relu", 0, 0, {}]]], "config": {"depth_multiplier": 1, "name": "block_4_depthwise", "bias_regularizer": null, "bias_constraint": null, "dtype": "float32", "activation": "linear", "trainable": false, "depthwise_constraint": null, "data_format": "channels_last", "padding": "same", "strides": [1, 1], "dilation_rate": [1, 1], "depthwise_initializer": {"class_name": "GlorotUniform", "config": {"dtype": "float32", "seed": null}}, "bias_initializer": {"class_name": "Zeros", "config": {"dtype": "float32"}}, "depthwise_regularizer": null, "use_bias": false, "activity_regularizer": null, "kernel_size": [3, 3]}, "name": "block_4_depthwise"}, {"class_name": "BatchNormalization", "inbound_nodes": [[["block_4_depthwise", 0, 0, {}]]], "config": {"gamma_initializer": {"class_name": "Ones", "config": {"dtype": "float32"}}, "moving_mean_initializer": {"class_name": "Zeros", "config": {"dtype": "float32"}}, "name": "block_4_depthwise_BN", "gamma_regularizer": null, "dtype": "float32", "trainable": false, "center": true, "moving_variance_initializer": {"class_name": "Ones", "config": {"dtype": "float32"}}, "beta_initializer": {"class_name": "Zeros", "config": {"dtype": "float32"}}, "scale": true, "epsilon": 0.001, "gamma_constraint": null, "beta_constraint": null, "beta_regularizer": null, "momentum": 0.999, "axis": [3]}, "name": "block_4_depthwise_BN"}, {"class_name": "ReLU", "inbound_nodes": [[["block_4_depthwise_BN", 0, 0, {}]]], "config": {"name": "block_4_depthwise_relu", "dtype": "float32", "trainable": false, "max_value": 6.0, "threshold": 0.0, "negative_slope": 0.0}, "name": "block_4_depthwise_relu"}, {"class_name": "Conv2D", "inbound_nodes": [[["block_4_depthwise_relu", 0, 0, {}]]], "config": {"kernel_initializer": {"class_name": "GlorotUniform", "config": {"dtype": "float32", "seed": null}}, "name": "block_4_project", "kernel_constraint": null, "bias_regularizer": null, "bias_constraint": null, "dtype": "float32", "activation": "linear", "trainable": false, "data_format": "channels_last", "padding": "same", "strides": [1, 1], "dilation_rate": [1, 1], "kernel_regularizer": null, "filters": 32, "bias_initializer": {"class_name": "Zeros", "config": {"dtype": "float32"}}, "use_bias": false, "activity_regularizer": null, "kernel_size": [1, 1]}, "name": "block_4_project"}, {"class_name": "BatchNormalization", "inbound_nodes": [[["block_4_project", 0, 0, {}]]], "config": {"gamma_initializer": {"class_name": "Ones", "config": {"dtype": "float32"}}, "moving_mean_initializer": {"class_name": "Zeros", "config": {"dtype": "float32"}}, "name": "block_4_project_BN", "gamma_regularizer": null, "dtype": "float32", "trainable": false, "center": true, "moving_variance_initializer": {"class_name": "Ones", "config": {"dtype": "float32"}}, "beta_initializer": {"class_name": "Zeros", "config": {"dtype": "float32"}}, "scale": true, "epsilon": 0.001, "gamma_constraint": null, "beta_constraint": null, "beta_regularizer": null, "momentum": 0.999, "axis": [3]}, "name": "block_4_project_BN"}, {"class_name": "Add", "inbound_nodes": [[["block_3_project_BN", 0, 0, {}], ["block_4_project_BN", 0, 0, {}]]], "config": {"dtype": "float32", "trainable": false, "name": "block_4_add"}, "name": "block_4_add"}, {"class_name": "Conv2D", "inbound_nodes": [[["block_4_add", 0, 0, {}]]], "config": {"kernel_initializer": {"class_name": "GlorotUniform", "config": {"dtype": "float32", "seed": null}}, "name": "block_5_expand", "kernel_constraint": null, "bias_regularizer": null, "bias_constraint": null, "dtype": "float32", "activation": "linear", "trainable": false, "data_format": "channels_last", "padding": "same", "strides": [1, 1], "dilation_rate": [1, 1], "kernel_regularizer": null, "filters": 192, "bias_initializer": {"class_name": "Zeros", "config": {"dtype": "float32"}}, "use_bias": false, "activity_regularizer": null, "kernel_size": [1, 1]}, "name": "block_5_expand"}, {"class_name": "BatchNormalization", "inbound_nodes": [[["block_5_expand", 0, 0, {}]]], "config": {"gamma_initializer": {"class_name": "Ones", "config": {"dtype": "float32"}}, "moving_mean_initializer": {"class_name": "Zeros", "config": {"dtype": "float32"}}, "name": "block_5_expand_BN", "gamma_regularizer": null, "dtype": "float32", "trainable": false, "center": true, "moving_variance_initializer": {"class_name": "Ones", "config": {"dtype": "float32"}}, "beta_initializer": {"class_name": "Zeros", "config": {"dtype": "float32"}}, "scale": true, "epsilon": 0.001, "gamma_constraint": null, "beta_constraint": null, "beta_regularizer": null, "momentum": 0.999, "axis": [3]}, "name": "block_5_expand_BN"}, {"class_name": "ReLU", "inbound_nodes": [[["block_5_expand_BN", 0, 0, {}]]], "config": {"name": "block_5_expand_relu", "dtype": "float32", "trainable": false, "max_value": 6.0, "threshold": 0.0, "negative_slope": 0.0}, "name": "block_5_expand_relu"}, {"class_name": "DepthwiseConv2D", "inbound_nodes": [[["block_5_expand_relu", 0, 0, {}]]], "config": {"depth_multiplier": 1, "name": "block_5_depthwise", "bias_regularizer": null, "bias_constraint": null, "dtype": "float32", "activation": "linear", "trainable": false, "depthwise_constraint": null, "data_format": "channels_last", "padding": "same", "strides": [1, 1], "dilation_rate": [1, 1], "depthwise_initializer": {"class_name": "GlorotUniform", "config": {"dtype": "float32", "seed": null}}, "bias_initializer": {"class_name": "Zeros", "config": {"dtype": "float32"}}, "depthwise_regularizer": null, "use_bias": false, "activity_regularizer": null, "kernel_size": [3, 3]}, "name": "block_5_depthwise"}, {"class_name": "BatchNormalization", "inbound_nodes": [[["block_5_depthwise", 0, 0, {}]]], "config": {"gamma_initializer": {"class_name": "Ones", "config": {"dtype": "float32"}}, "moving_mean_initializer": {"class_name": "Zeros", "config": {"dtype": "float32"}}, "name": "block_5_depthwise_BN", "gamma_regularizer": null, "dtype": "float32", "trainable": false, "center": true, "moving_variance_initializer": {"class_name": "Ones", "config": {"dtype": "float32"}}, "beta_initializer": {"class_name": "Zeros", "config": {"dtype": "float32"}}, "scale": true, "epsilon": 0.001, "gamma_constraint": null, "beta_constraint": null, "beta_regularizer": null, "momentum": 0.999, "axis": [3]}, "name": "block_5_depthwise_BN"}, {"class_name": "ReLU", "inbound_nodes": [[["block_5_depthwise_BN", 0, 0, {}]]], "config": {"name": "block_5_depthwise_relu", "dtype": "float32", "trainable": false, "max_value": 6.0, "threshold": 0.0, "negative_slope": 0.0}, "name": "block_5_depthwise_relu"}, {"class_name": "Conv2D", "inbound_nodes": [[["block_5_depthwise_relu", 0, 0, {}]]], "config": {"kernel_initializer": {"class_name": "GlorotUniform", "config": {"dtype": "float32", "seed": null}}, "name": "block_5_project", "kernel_constraint": null, "bias_regularizer": null, "bias_constraint": null, "dtype": "float32", "activation": "linear", "trainable": false, "data_format": "channels_last", "padding": "same", "strides": [1, 1], "dilation_rate": [1, 1], "kernel_regularizer": null, "filters": 32, "bias_initializer": {"class_name": "Zeros", "config": {"dtype": "float32"}}, "use_bias": false, "activity_regularizer": null, "kernel_size": [1, 1]}, "name": "block_5_project"}, {"class_name": "BatchNormalization", "inbound_nodes": [[["block_5_project", 0, 0, {}]]], "config": {"gamma_initializer": {"class_name": "Ones", "config": {"dtype": "float32"}}, "moving_mean_initializer": {"class_name": "Zeros", "config": {"dtype": "float32"}}, "name": "block_5_project_BN", "gamma_regularizer": null, "dtype": "float32", "trainable": false, "center": true, "moving_variance_initializer": {"class_name": "Ones", "config": {"dtype": "float32"}}, "beta_initializer": {"class_name": "Zeros", "config": {"dtype": "float32"}}, "scale": true, "epsilon": 0.001, "gamma_constraint": null, "beta_constraint": null, "beta_regularizer": null, "momentum": 0.999, "axis": [3]}, "name": "block_5_project_BN"}, {"class_name": "Add", "inbound_nodes": [[["block_4_add", 0, 0, {}], ["block_5_project_BN", 0, 0, {}]]], "config": {"dtype": "float32", "trainable": false, "name": "block_5_add"}, "name": "block_5_add"}, {"class_name": "Conv2D", "inbound_nodes": [[["block_5_add", 0, 0, {}]]], "config": {"kernel_initializer": {"class_name": "GlorotUniform", "config": {"dtype": "float32", "seed": null}}, "name": "block_6_expand", "kernel_constraint": null, "bias_regularizer": null, "bias_constraint": null, "dtype": "float32", "activation": "linear", "trainable": false, "data_format": "channels_last", "padding": "same", "strides": [1, 1], "dilation_rate": [1, 1], "kernel_regularizer": null, "filters": 192, "bias_initializer": {"class_name": "Zeros", "config": {"dtype": "float32"}}, "use_bias": false, "activity_regularizer": null, "kernel_size": [1, 1]}, "name": "block_6_expand"}, {"class_name": "BatchNormalization", "inbound_nodes": [[["block_6_expand", 0, 0, {}]]], "config": {"gamma_initializer": {"class_name": "Ones", "config": {"dtype": "float32"}}, "moving_mean_initializer": {"class_name": "Zeros", "config": {"dtype": "float32"}}, "name": "block_6_expand_BN", "gamma_regularizer": null, "dtype": "float32", "trainable": false, "center": true, "moving_variance_initializer": {"class_name": "Ones", "config": {"dtype": "float32"}}, "beta_initializer": {"class_name": "Zeros", "config": {"dtype": "float32"}}, "scale": true, "epsilon": 0.001, "gamma_constraint": null, "beta_constraint": null, "beta_regularizer": null, "momentum": 0.999, "axis": [3]}, "name": "block_6_expand_BN"}, {"class_name": "ReLU", "inbound_nodes": [[["block_6_expand_BN", 0, 0, {}]]], "config": {"name": "block_6_expand_relu", "dtype": "float32", "trainable": false, "max_value": 6.0, "threshold": 0.0, "negative_slope": 0.0}, "name": "block_6_expand_relu"}, {"class_name": "ZeroPadding2D", "inbound_nodes": [[["block_6_expand_relu", 0, 0, {}]]], "config": {"padding": [[0, 1], [0, 1]], "dtype": "float32", "trainable": false, "name": "block_6_pad", "data_format": "channels_last"}, "name": "block_6_pad"}, {"class_name": "DepthwiseConv2D", "inbound_nodes": [[["block_6_pad", 0, 0, {}]]], "config": {"depth_multiplier": 1, "name": "block_6_depthwise", "bias_regularizer": null, "bias_constraint": null, "dtype": "float32", "activation": "linear", "trainable": false, "depthwise_constraint": null, "data_format": "channels_last", "padding": "valid", "strides": [2, 2], "dilation_rate": [1, 1], "depthwise_initializer": {"class_name": "GlorotUniform", "config": {"dtype": "float32", "seed": null}}, "bias_initializer": {"class_name": "Zeros", "config": {"dtype": "float32"}}, "depthwise_regularizer": null, "use_bias": false, "activity_regularizer": null, "kernel_size": [3, 3]}, "name": "block_6_depthwise"}, {"class_name": "BatchNormalization", "inbound_nodes": [[["block_6_depthwise", 0, 0, {}]]], "config": {"gamma_initializer": {"class_name": "Ones", "config": {"dtype": "float32"}}, "moving_mean_initializer": {"class_name": "Zeros", "config": {"dtype": "float32"}}, "name": "block_6_depthwise_BN", "gamma_regularizer": null, "dtype": "float32", "trainable": false, "center": true, "moving_variance_initializer": {"class_name": "Ones", "config": {"dtype": "float32"}}, "beta_initializer": {"class_name": "Zeros", "config": {"dtype": "float32"}}, "scale": true, "epsilon": 0.001, "gamma_constraint": null, "beta_constraint": null, "beta_regularizer": null, "momentum": 0.999, "axis": [3]}, "name": "block_6_depthwise_BN"}, {"class_name": "ReLU", "inbound_nodes": [[["block_6_depthwise_BN", 0, 0, {}]]], "config": {"name": "block_6_depthwise_relu", "dtype": "float32", "trainable": false, "max_value": 6.0, "threshold": 0.0, "negative_slope": 0.0}, "name": "block_6_depthwise_relu"}, {"class_name": "Conv2D", "inbound_nodes": [[["block_6_depthwise_relu", 0, 0, {}]]], "config": {"kernel_initializer": {"class_name": "GlorotUniform", "config": {"dtype": "float32", "seed": null}}, "name": "block_6_project", "kernel_constraint": null, "bias_regularizer": null, "bias_constraint": null, "dtype": "float32", "activation": "linear", "trainable": false, "data_format": "channels_last", "padding": "same", "strides": [1, 1], "dilation_rate": [1, 1], "kernel_regularizer": null, "filters": 64, "bias_initializer": {"class_name": "Zeros", "config": {"dtype": "float32"}}, "use_bias": false, "activity_regularizer": null, "kernel_size": [1, 1]}, "name": "block_6_project"}, {"class_name": "BatchNormalization", "inbound_nodes": [[["block_6_project", 0, 0, {}]]], "config": {"gamma_initializer": {"class_name": "Ones", "config": {"dtype": "float32"}}, "moving_mean_initializer": {"class_name": "Zeros", "config": {"dtype": "float32"}}, "name": "block_6_project_BN", "gamma_regularizer": null, "dtype": "float32", "trainable": false, "center": true, "moving_variance_initializer": {"class_name": "Ones", "config": {"dtype": "float32"}}, "beta_initializer": {"class_name": "Zeros", "config": {"dtype": "float32"}}, "scale": true, "epsilon": 0.001, "gamma_constraint": null, "beta_constraint": null, "beta_regularizer": null, "momentum": 0.999, "axis": [3]}, "name": "block_6_project_BN"}, {"class_name": "Conv2D", "inbound_nodes": [[["block_6_project_BN", 0, 0, {}]]], "config": {"kernel_initializer": {"class_name": "GlorotUniform", "config": {"dtype": "float32", "seed": null}}, "name": "block_7_expand", "kernel_constraint": null, "bias_regularizer": null, "bias_constraint": null, "dtype": "float32", "activation": "linear", "trainable": false, "data_format": "channels_last", "padding": "same", "strides": [1, 1], "dilation_rate": [1, 1], "kernel_regularizer": null, "filters": 384, "bias_initializer": {"class_name": "Zeros", "config": {"dtype": "float32"}}, "use_bias": false, "activity_regularizer": null, "kernel_size": [1, 1]}, "name": "block_7_expand"}, {"class_name": "BatchNormalization", "inbound_nodes": [[["block_7_expand", 0, 0, {}]]], "config": {"gamma_initializer": {"class_name": "Ones", "config": {"dtype": "float32"}}, "moving_mean_initializer": {"class_name": "Zeros", "config": {"dtype": "float32"}}, "name": "block_7_expand_BN", "gamma_regularizer": null, "dtype": "float32", "trainable": false, "center": true, "moving_variance_initializer": {"class_name": "Ones", "config": {"dtype": "float32"}}, "beta_initializer": {"class_name": "Zeros", "config": {"dtype": "float32"}}, "scale": true, "epsilon": 0.001, "gamma_constraint": null, "beta_constraint": null, "beta_regularizer": null, "momentum": 0.999, "axis": [3]}, "name": "block_7_expand_BN"}, {"class_name": "ReLU", "inbound_nodes": [[["block_7_expand_BN", 0, 0, {}]]], "config": {"name": "block_7_expand_relu", "dtype": "float32", "trainable": false, "max_value": 6.0, "threshold": 0.0, "negative_slope": 0.0}, "name": "block_7_expand_relu"}, {"class_name": "DepthwiseConv2D", "inbound_nodes": [[["block_7_expand_relu", 0, 0, {}]]], "config": {"depth_multiplier": 1, "name": "block_7_depthwise", "bias_regularizer": null, "bias_constraint": null, "dtype": "float32", "activation": "linear", "trainable": false, "depthwise_constraint": null, "data_format": "channels_last", "padding": "same", "strides": [1, 1], "dilation_rate": [1, 1], "depthwise_initializer": {"class_name": "GlorotUniform", "config": {"dtype": "float32", "seed": null}}, "bias_initializer": {"class_name": "Zeros", "config": {"dtype": "float32"}}, "depthwise_regularizer": null, "use_bias": false, "activity_regularizer": null, "kernel_size": [3, 3]}, "name": "block_7_depthwise"}, {"class_name": "BatchNormalization", "inbound_nodes": [[["block_7_depthwise", 0, 0, {}]]], "config": {"gamma_initializer": {"class_name": "Ones", "config": {"dtype": "float32"}}, "moving_mean_initializer": {"class_name": "Zeros", "config": {"dtype": "float32"}}, "name": "block_7_depthwise_BN", "gamma_regularizer": null, "dtype": "float32", "trainable": false, "center": true, "moving_variance_initializer": {"class_name": "Ones", "config": {"dtype": "float32"}}, "beta_initializer": {"class_name": "Zeros", "config": {"dtype": "float32"}}, "scale": true, "epsilon": 0.001, "gamma_constraint": null, "beta_constraint": null, "beta_regularizer": null, "momentum": 0.999, "axis": [3]}, "name": "block_7_depthwise_BN"}, {"class_name": "ReLU", "inbound_nodes": [[["block_7_depthwise_BN", 0, 0, {}]]], "config": {"name": "block_7_depthwise_relu", "dtype": "float32", "trainable": false, "max_value": 6.0, "threshold": 0.0, "negative_slope": 0.0}, "name": "block_7_depthwise_relu"}, {"class_name": "Conv2D", "inbound_nodes": [[["block_7_depthwise_relu", 0, 0, {}]]], "config": {"kernel_initializer": {"class_name": "GlorotUniform", "config": {"dtype": "float32", "seed": null}}, "name": "block_7_project", "kernel_constraint": null, "bias_regularizer": null, "bias_constraint": null, "dtype": "float32", "activation": "linear", "trainable": false, "data_format": "channels_last", "padding": "same", "strides": [1, 1], "dilation_rate": [1, 1], "kernel_regularizer": null, "filters": 64, "bias_initializer": {"class_name": "Zeros", "config": {"dtype": "float32"}}, "use_bias": false, "activity_regularizer": null, "kernel_size": [1, 1]}, "name": "block_7_project"}, {"class_name": "BatchNormalization", "inbound_nodes": [[["block_7_project", 0, 0, {}]]], "config": {"gamma_initializer": {"class_name": "Ones", "config": {"dtype": "float32"}}, "moving_mean_initializer": {"class_name": "Zeros", "config": {"dtype": "float32"}}, "name": "block_7_project_BN", "gamma_regularizer": null, "dtype": "float32", "trainable": false, "center": true, "moving_variance_initializer": {"class_name": "Ones", "config": {"dtype": "float32"}}, "beta_initializer": {"class_name": "Zeros", "config": {"dtype": "float32"}}, "scale": true, "epsilon": 0.001, "gamma_constraint": null, "beta_constraint": null, "beta_regularizer": null, "momentum": 0.999, "axis": [3]}, "name": "block_7_project_BN"}, {"class_name": "Add", "inbound_nodes": [[["block_6_project_BN", 0, 0, {}], ["block_7_project_BN", 0, 0, {}]]], "config": {"dtype": "float32", "trainable": false, "name": "block_7_add"}, "name": "block_7_add"}, {"class_name": "Conv2D", "inbound_nodes": [[["block_7_add", 0, 0, {}]]], "config": {"kernel_initializer": {"class_name": "GlorotUniform", "config": {"dtype": "float32", "seed": null}}, "name": "block_8_expand", "kernel_constraint": null, "bias_regularizer": null, "bias_constraint": null, "dtype": "float32", "activation": "linear", "trainable": false, "data_format": "channels_last", "padding": "same", "strides": [1, 1], "dilation_rate": [1, 1], "kernel_regularizer": null, "filters": 384, "bias_initializer": {"class_name": "Zeros", "config": {"dtype": "float32"}}, "use_bias": false, "activity_regularizer": null, "kernel_size": [1, 1]}, "name": "block_8_expand"}, {"class_name": "BatchNormalization", "inbound_nodes": [[["block_8_expand", 0, 0, {}]]], "config": {"gamma_initializer": {"class_name": "Ones", "config": {"dtype": "float32"}}, "moving_mean_initializer": {"class_name": "Zeros", "config": {"dtype": "float32"}}, "name": "block_8_expand_BN", "gamma_regularizer": null, "dtype": "float32", "trainable": false, "center": true, "moving_variance_initializer": {"class_name": "Ones", "config": {"dtype": "float32"}}, "beta_initializer": {"class_name": "Zeros", "config": {"dtype": "float32"}}, "scale": true, "epsilon": 0.001, "gamma_constraint": null, "beta_constraint": null, "beta_regularizer": null, "momentum": 0.999, "axis": [3]}, "name": "block_8_expand_BN"}, {"class_name": "ReLU", "inbound_nodes": [[["block_8_expand_BN", 0, 0, {}]]], "config": {"name": "block_8_expand_relu", "dtype": "float32", "trainable": false, "max_value": 6.0, "threshold": 0.0, "negative_slope": 0.0}, "name": "block_8_expand_relu"}, {"class_name": "DepthwiseConv2D", "inbound_nodes": [[["block_8_expand_relu", 0, 0, {}]]], "config": {"depth_multiplier": 1, "name": "block_8_depthwise", "bias_regularizer": null, "bias_constraint": null, "dtype": "float32", "activation": "linear", "trainable": false, "depthwise_constraint": null, "data_format": "channels_last", "padding": "same", "strides": [1, 1], "dilation_rate": [1, 1], "depthwise_initializer": {"class_name": "GlorotUniform", "config": {"dtype": "float32", "seed": null}}, "bias_initializer": {"class_name": "Zeros", "config": {"dtype": "float32"}}, "depthwise_regularizer": null, "use_bias": false, "activity_regularizer": null, "kernel_size": [3, 3]}, "name": "block_8_depthwise"}, {"class_name": "BatchNormalization", "inbound_nodes": [[["block_8_depthwise", 0, 0, {}]]], "config": {"gamma_initializer": {"class_name": "Ones", "config": {"dtype": "float32"}}, "moving_mean_initializer": {"class_name": "Zeros", "config": {"dtype": "float32"}}, "name": "block_8_depthwise_BN", "gamma_regularizer": null, "dtype": "float32", "trainable": false, "center": true, "moving_variance_initializer": {"class_name": "Ones", "config": {"dtype": "float32"}}, "beta_initializer": {"class_name": "Zeros", "config": {"dtype": "float32"}}, "scale": true, "epsilon": 0.001, "gamma_constraint": null, "beta_constraint": null, "beta_regularizer": null, "momentum": 0.999, "axis": [3]}, "name": "block_8_depthwise_BN"}, {"class_name": "ReLU", "inbound_nodes": [[["block_8_depthwise_BN", 0, 0, {}]]], "config": {"name": "block_8_depthwise_relu", "dtype": "float32", "trainable": false, "max_value": 6.0, "threshold": 0.0, "negative_slope": 0.0}, "name": "block_8_depthwise_relu"}, {"class_name": "Conv2D", "inbound_nodes": [[["block_8_depthwise_relu", 0, 0, {}]]], "config": {"kernel_initializer": {"class_name": "GlorotUniform", "config": {"dtype": "float32", "seed": null}}, "name": "block_8_project", "kernel_constraint": null, "bias_regularizer": null, "bias_constraint": null, "dtype": "float32", "activation": "linear", "trainable": false, "data_format": "channels_last", "padding": "same", "strides": [1, 1], "dilation_rate": [1, 1], "kernel_regularizer": null, "filters": 64, "bias_initializer": {"class_name": "Zeros", "config": {"dtype": "float32"}}, "use_bias": false, "activity_regularizer": null, "kernel_size": [1, 1]}, "name": "block_8_project"}, {"class_name": "BatchNormalization", "inbound_nodes": [[["block_8_project", 0, 0, {}]]], "config": {"gamma_initializer": {"class_name": "Ones", "config": {"dtype": "float32"}}, "moving_mean_initializer": {"class_name": "Zeros", "config": {"dtype": "float32"}}, "name": "block_8_project_BN", "gamma_regularizer": null, "dtype": "float32", "trainable": false, "center": true, "moving_variance_initializer": {"class_name": "Ones", "config": {"dtype": "float32"}}, "beta_initializer": {"class_name": "Zeros", "config": {"dtype": "float32"}}, "scale": true, "epsilon": 0.001, "gamma_constraint": null, "beta_constraint": null, "beta_regularizer": null, "momentum": 0.999, "axis": [3]}, "name": "block_8_project_BN"}, {"class_name": "Add", "inbound_nodes": [[["block_7_add", 0, 0, {}], ["block_8_project_BN", 0, 0, {}]]], "config": {"dtype": "float32", "trainable": false, "name": "block_8_add"}, "name": "block_8_add"}, {"class_name": "Conv2D", "inbound_nodes": [[["block_8_add", 0, 0, {}]]], "config": {"kernel_initializer": {"class_name": "GlorotUniform", "config": {"dtype": "float32", "seed": null}}, "name": "block_9_expand", "kernel_constraint": null, "bias_regularizer": null, "bias_constraint": null, "dtype": "float32", "activation": "linear", "trainable": false, "data_format": "channels_last", "padding": "same", "strides": [1, 1], "dilation_rate": [1, 1], "kernel_regularizer": null, "filters": 384, "bias_initializer": {"class_name": "Zeros", "config": {"dtype": "float32"}}, "use_bias": false, "activity_regularizer": null, "kernel_size": [1, 1]}, "name": "block_9_expand"}, {"class_name": "BatchNormalization", "inbound_nodes": [[["block_9_expand", 0, 0, {}]]], "config": {"gamma_initializer": {"class_name": "Ones", "config": {"dtype": "float32"}}, "moving_mean_initializer": {"class_name": "Zeros", "config": {"dtype": "float32"}}, "name": "block_9_expand_BN", "gamma_regularizer": null, "dtype": "float32", "trainable": false, "center": true, "moving_variance_initializer": {"class_name": "Ones", "config": {"dtype": "float32"}}, "beta_initializer": {"class_name": "Zeros", "config": {"dtype": "float32"}}, "scale": true, "epsilon": 0.001, "gamma_constraint": null, "beta_constraint": null, "beta_regularizer": null, "momentum": 0.999, "axis": [3]}, "name": "block_9_expand_BN"}, {"class_name": "ReLU", "inbound_nodes": [[["block_9_expand_BN", 0, 0, {}]]], "config": {"name": "block_9_expand_relu", "dtype": "float32", "trainable": false, "max_value": 6.0, "threshold": 0.0, "negative_slope": 0.0}, "name": "block_9_expand_relu"}, {"class_name": "DepthwiseConv2D", "inbound_nodes": [[["block_9_expand_relu", 0, 0, {}]]], "config": {"depth_multiplier": 1, "name": "block_9_depthwise", "bias_regularizer": null, "bias_constraint": null, "dtype": "float32", "activation": "linear", "trainable": false, "depthwise_constraint": null, "data_format": "channels_last", "padding": "same", "strides": [1, 1], "dilation_rate": [1, 1], "depthwise_initializer": {"class_name": "GlorotUniform", "config": {"dtype": "float32", "seed": null}}, "bias_initializer": {"class_name": "Zeros", "config": {"dtype": "float32"}}, "depthwise_regularizer": null, "use_bias": false, "activity_regularizer": null, "kernel_size": [3, 3]}, "name": "block_9_depthwise"}, {"class_name": "BatchNormalization", "inbound_nodes": [[["block_9_depthwise", 0, 0, {}]]], "config": {"gamma_initializer": {"class_name": "Ones", "config": {"dtype": "float32"}}, "moving_mean_initializer": {"class_name": "Zeros", "config": {"dtype": "float32"}}, "name": "block_9_depthwise_BN", "gamma_regularizer": null, "dtype": "float32", "trainable": false, "center": true, "moving_variance_initializer": {"class_name": "Ones", "config": {"dtype": "float32"}}, "beta_initializer": {"class_name": "Zeros", "config": {"dtype": "float32"}}, "scale": true, "epsilon": 0.001, "gamma_constraint": null, "beta_constraint": null, "beta_regularizer": null, "momentum": 0.999, "axis": [3]}, "name": "block_9_depthwise_BN"}, {"class_name": "ReLU", "inbound_nodes": [[["block_9_depthwise_BN", 0, 0, {}]]], "config": {"name": "block_9_depthwise_relu", "dtype": "float32", "trainable": false, "max_value": 6.0, "threshold": 0.0, "negative_slope": 0.0}, "name": "block_9_depthwise_relu"}, {"class_name": "Conv2D", "inbound_nodes": [[["block_9_depthwise_relu", 0, 0, {}]]], "config": {"kernel_initializer": {"class_name": "GlorotUniform", "config": {"dtype": "float32", "seed": null}}, "name": "block_9_project", "kernel_constraint": null, "bias_regularizer": null, "bias_constraint": null, "dtype": "float32", "activation": "linear", "trainable": false, "data_format": "channels_last", "padding": "same", "strides": [1, 1], "dilation_rate": [1, 1], "kernel_regularizer": null, "filters": 64, "bias_initializer": {"class_name": "Zeros", "config": {"dtype": "float32"}}, "use_bias": false, "activity_regularizer": null, "kernel_size": [1, 1]}, "name": "block_9_project"}, {"class_name": "BatchNormalization", "inbound_nodes": [[["block_9_project", 0, 0, {}]]], "config": {"gamma_initializer": {"class_name": "Ones", "config": {"dtype": "float32"}}, "moving_mean_initializer": {"class_name": "Zeros", "config": {"dtype": "float32"}}, "name": "block_9_project_BN", "gamma_regularizer": null, "dtype": "float32", "trainable": false, "center": true, "moving_variance_initializer": {"class_name": "Ones", "config": {"dtype": "float32"}}, "beta_initializer": {"class_name": "Zeros", "config": {"dtype": "float32"}}, "scale": true, "epsilon": 0.001, "gamma_constraint": null, "beta_constraint": null, "beta_regularizer": null, "momentum": 0.999, "axis": [3]}, "name": "block_9_project_BN"}, {"class_name": "Add", "inbound_nodes": [[["block_8_add", 0, 0, {}], ["block_9_project_BN", 0, 0, {}]]], "config": {"dtype": "float32", "trainable": false, "name": "block_9_add"}, "name": "block_9_add"}, {"class_name": "Conv2D", "inbound_nodes": [[["block_9_add", 0, 0, {}]]], "config": {"kernel_initializer": {"class_name": "GlorotUniform", "config": {"dtype": "float32", "seed": null}}, "name": "block_10_expand", "kernel_constraint": null, "bias_regularizer": null, "bias_constraint": null, "dtype": "float32", "activation": "linear", "trainable": false, "data_format": "channels_last", "padding": "same", "strides": [1, 1], "dilation_rate": [1, 1], "kernel_regularizer": null, "filters": 384, "bias_initializer": {"class_name": "Zeros", "config": {"dtype": "float32"}}, "use_bias": false, "activity_regularizer": null, "kernel_size": [1, 1]}, "name": "block_10_expand"}, {"class_name": "BatchNormalization", "inbound_nodes": [[["block_10_expand", 0, 0, {}]]], "config": {"gamma_initializer": {"class_name": "Ones", "config": {"dtype": "float32"}}, "moving_mean_initializer": {"class_name": "Zeros", "config": {"dtype": "float32"}}, "name": "block_10_expand_BN", "gamma_regularizer": null, "dtype": "float32", "trainable": false, "center": true, "moving_variance_initializer": {"class_name": "Ones", "config": {"dtype": "float32"}}, "beta_initializer": {"class_name": "Zeros", "config": {"dtype": "float32"}}, "scale": true, "epsilon": 0.001, "gamma_constraint": null, "beta_constraint": null, "beta_regularizer": null, "momentum": 0.999, "axis": [3]}, "name": "block_10_expand_BN"}, {"class_name": "ReLU", "inbound_nodes": [[["block_10_expand_BN", 0, 0, {}]]], "config": {"name": "block_10_expand_relu", "dtype": "float32", "trainable": false, "max_value": 6.0, "threshold": 0.0, "negative_slope": 0.0}, "name": "block_10_expand_relu"}, {"class_name": "DepthwiseConv2D", "inbound_nodes": [[["block_10_expand_relu", 0, 0, {}]]], "config": {"depth_multiplier": 1, "name": "block_10_depthwise", "bias_regularizer": null, "bias_constraint": null, "dtype": "float32", "activation": "linear", "trainable": false, "depthwise_constraint": null, "data_format": "channels_last", "padding": "same", "strides": [1, 1], "dilation_rate": [1, 1], "depthwise_initializer": {"class_name": "GlorotUniform", "config": {"dtype": "float32", "seed": null}}, "bias_initializer": {"class_name": "Zeros", "config": {"dtype": "float32"}}, "depthwise_regularizer": null, "use_bias": false, "activity_regularizer": null, "kernel_size": [3, 3]}, "name": "block_10_depthwise"}, {"class_name": "BatchNormalization", "inbound_nodes": [[["block_10_depthwise", 0, 0, {}]]], "config": {"gamma_initializer": {"class_name": "Ones", "config": {"dtype": "float32"}}, "moving_mean_initializer": {"class_name": "Zeros", "config": {"dtype": "float32"}}, "name": "block_10_depthwise_BN", "gamma_regularizer": null, "dtype": "float32", "trainable": false, "center": true, "moving_variance_initializer": {"class_name": "Ones", "config": {"dtype": "float32"}}, "beta_initializer": {"class_name": "Zeros", "config": {"dtype": "float32"}}, "scale": true, "epsilon": 0.001, "gamma_constraint": null, "beta_constraint": null, "beta_regularizer": null, "momentum": 0.999, "axis": [3]}, "name": "block_10_depthwise_BN"}, {"class_name": "ReLU", "inbound_nodes": [[["block_10_depthwise_BN", 0, 0, {}]]], "config": {"name": "block_10_depthwise_relu", "dtype": "float32", "trainable": false, "max_value": 6.0, "threshold": 0.0, "negative_slope": 0.0}, "name": "block_10_depthwise_relu"}, {"class_name": "Conv2D", "inbound_nodes": [[["block_10_depthwise_relu", 0, 0, {}]]], "config": {"kernel_initializer": {"class_name": "GlorotUniform", "config": {"dtype": "float32", "seed": null}}, "name": "block_10_project", "kernel_constraint": null, "bias_regularizer": null, "bias_constraint": null, "dtype": "float32", "activation": "linear", "trainable": false, "data_format": "channels_last", "padding": "same", "strides": [1, 1], "dilation_rate": [1, 1], "kernel_regularizer": null, "filters": 96, "bias_initializer": {"class_name": "Zeros", "config": {"dtype": "float32"}}, "use_bias": false, "activity_regularizer": null, "kernel_size": [1, 1]}, "name": "block_10_project"}, {"class_name": "BatchNormalization", "inbound_nodes": [[["block_10_project", 0, 0, {}]]], "config": {"gamma_initializer": {"class_name": "Ones", "config": {"dtype": "float32"}}, "moving_mean_initializer": {"class_name": "Zeros", "config": {"dtype": "float32"}}, "name": "block_10_project_BN", "gamma_regularizer": null, "dtype": "float32", "trainable": false, "center": true, "moving_variance_initializer": {"class_name": "Ones", "config": {"dtype": "float32"}}, "beta_initializer": {"class_name": "Zeros", "config": {"dtype": "float32"}}, "scale": true, "epsilon": 0.001, "gamma_constraint": null, "beta_constraint": null, "beta_regularizer": null, "momentum": 0.999, "axis": [3]}, "name": "block_10_project_BN"}, {"class_name": "Conv2D", "inbound_nodes": [[["block_10_project_BN", 0, 0, {}]]], "config": {"kernel_initializer": {"class_name": "GlorotUniform", "config": {"dtype": "float32", "seed": null}}, "name": "block_11_expand", "kernel_constraint": null, "bias_regularizer": null, "bias_constraint": null, "dtype": "float32", "activation": "linear", "trainable": false, "data_format": "channels_last", "padding": "same", "strides": [1, 1], "dilation_rate": [1, 1], "kernel_regularizer": null, "filters": 576, "bias_initializer": {"class_name": "Zeros", "config": {"dtype": "float32"}}, "use_bias": false, "activity_regularizer": null, "kernel_size": [1, 1]}, "name": "block_11_expand"}, {"class_name": "BatchNormalization", "inbound_nodes": [[["block_11_expand", 0, 0, {}]]], "config": {"gamma_initializer": {"class_name": "Ones", "config": {"dtype": "float32"}}, "moving_mean_initializer": {"class_name": "Zeros", "config": {"dtype": "float32"}}, "name": "block_11_expand_BN", "gamma_regularizer": null, "dtype": "float32", "trainable": false, "center": true, "moving_variance_initializer": {"class_name": "Ones", "config": {"dtype": "float32"}}, "beta_initializer": {"class_name": "Zeros", "config": {"dtype": "float32"}}, "scale": true, "epsilon": 0.001, "gamma_constraint": null, "beta_constraint": null, "beta_regularizer": null, "momentum": 0.999, "axis": [3]}, "name": "block_11_expand_BN"}, {"class_name": "ReLU", "inbound_nodes": [[["block_11_expand_BN", 0, 0, {}]]], "config": {"name": "block_11_expand_relu", "dtype": "float32", "trainable": false, "max_value": 6.0, "threshold": 0.0, "negative_slope": 0.0}, "name": "block_11_expand_relu"}, {"class_name": "DepthwiseConv2D", "inbound_nodes": [[["block_11_expand_relu", 0, 0, {}]]], "config": {"depth_multiplier": 1, "name": "block_11_depthwise", "bias_regularizer": null, "bias_constraint": null, "dtype": "float32", "activation": "linear", "trainable": false, "depthwise_constraint": null, "data_format": "channels_last", "padding": "same", "strides": [1, 1], "dilation_rate": [1, 1], "depthwise_initializer": {"class_name": "GlorotUniform", "config": {"dtype": "float32", "seed": null}}, "bias_initializer": {"class_name": "Zeros", "config": {"dtype": "float32"}}, "depthwise_regularizer": null, "use_bias": false, "activity_regularizer": null, "kernel_size": [3, 3]}, "name": "block_11_depthwise"}, {"class_name": "BatchNormalization", "inbound_nodes": [[["block_11_depthwise", 0, 0, {}]]], "config": {"gamma_initializer": {"class_name": "Ones", "config": {"dtype": "float32"}}, "moving_mean_initializer": {"class_name": "Zeros", "config": {"dtype": "float32"}}, "name": "block_11_depthwise_BN", "gamma_regularizer": null, "dtype": "float32", "trainable": false, "center": true, "moving_variance_initializer": {"class_name": "Ones", "config": {"dtype": "float32"}}, "beta_initializer": {"class_name": "Zeros", "config": {"dtype": "float32"}}, "scale": true, "epsilon": 0.001, "gamma_constraint": null, "beta_constraint": null, "beta_regularizer": null, "momentum": 0.999, "axis": [3]}, "name": "block_11_depthwise_BN"}, {"class_name": "ReLU", "inbound_nodes": [[["block_11_depthwise_BN", 0, 0, {}]]], "config": {"name": "block_11_depthwise_relu", "dtype": "float32", "trainable": false, "max_value": 6.0, "threshold": 0.0, "negative_slope": 0.0}, "name": "block_11_depthwise_relu"}, {"class_name": "Conv2D", "inbound_nodes": [[["block_11_depthwise_relu", 0, 0, {}]]], "config": {"kernel_initializer": {"class_name": "GlorotUniform", "config": {"dtype": "float32", "seed": null}}, "name": "block_11_project", "kernel_constraint": null, "bias_regularizer": null, "bias_constraint": null, "dtype": "float32", "activation": "linear", "trainable": false, "data_format": "channels_last", "padding": "same", "strides": [1, 1], "dilation_rate": [1, 1], "kernel_regularizer": null, "filters": 96, "bias_initializer": {"class_name": "Zeros", "config": {"dtype": "float32"}}, "use_bias": false, "activity_regularizer": null, "kernel_size": [1, 1]}, "name": "block_11_project"}, {"class_name": "BatchNormalization", "inbound_nodes": [[["block_11_project", 0, 0, {}]]], "config": {"gamma_initializer": {"class_name": "Ones", "config": {"dtype": "float32"}}, "moving_mean_initializer": {"class_name": "Zeros", "config": {"dtype": "float32"}}, "name": "block_11_project_BN", "gamma_regularizer": null, "dtype": "float32", "trainable": false, "center": true, "moving_variance_initializer": {"class_name": "Ones", "config": {"dtype": "float32"}}, "beta_initializer": {"class_name": "Zeros", "config": {"dtype": "float32"}}, "scale": true, "epsilon": 0.001, "gamma_constraint": null, "beta_constraint": null, "beta_regularizer": null, "momentum": 0.999, "axis": [3]}, "name": "block_11_project_BN"}, {"class_name": "Add", "inbound_nodes": [[["block_10_project_BN", 0, 0, {}], ["block_11_project_BN", 0, 0, {}]]], "config": {"dtype": "float32", "trainable": false, "name": "block_11_add"}, "name": "block_11_add"}, {"class_name": "Conv2D", "inbound_nodes": [[["block_11_add", 0, 0, {}]]], "config": {"kernel_initializer": {"class_name": "GlorotUniform", "config": {"dtype": "float32", "seed": null}}, "name": "block_12_expand", "kernel_constraint": null, "bias_regularizer": null, "bias_constraint": null, "dtype": "float32", "activation": "linear", "trainable": false, "data_format": "channels_last", "padding": "same", "strides": [1, 1], "dilation_rate": [1, 1], "kernel_regularizer": null, "filters": 576, "bias_initializer": {"class_name": "Zeros", "config": {"dtype": "float32"}}, "use_bias": false, "activity_regularizer": null, "kernel_size": [1, 1]}, "name": "block_12_expand"}, {"class_name": "BatchNormalization", "inbound_nodes": [[["block_12_expand", 0, 0, {}]]], "config": {"gamma_initializer": {"class_name": "Ones", "config": {"dtype": "float32"}}, "moving_mean_initializer": {"class_name": "Zeros", "config": {"dtype": "float32"}}, "name": "block_12_expand_BN", "gamma_regularizer": null, "dtype": "float32", "trainable": false, "center": true, "moving_variance_initializer": {"class_name": "Ones", "config": {"dtype": "float32"}}, "beta_initializer": {"class_name": "Zeros", "config": {"dtype": "float32"}}, "scale": true, "epsilon": 0.001, "gamma_constraint": null, "beta_constraint": null, "beta_regularizer": null, "momentum": 0.999, "axis": [3]}, "name": "block_12_expand_BN"}, {"class_name": "ReLU", "inbound_nodes": [[["block_12_expand_BN", 0, 0, {}]]], "config": {"name": "block_12_expand_relu", "dtype": "float32", "trainable": false, "max_value": 6.0, "threshold": 0.0, "negative_slope": 0.0}, "name": "block_12_expand_relu"}, {"class_name": "DepthwiseConv2D", "inbound_nodes": [[["block_12_expand_relu", 0, 0, {}]]], "config": {"depth_multiplier": 1, "name": "block_12_depthwise", "bias_regularizer": null, "bias_constraint": null, "dtype": "float32", "activation": "linear", "trainable": false, "depthwise_constraint": null, "data_format": "channels_last", "padding": "same", "strides": [1, 1], "dilation_rate": [1, 1], "depthwise_initializer": {"class_name": "GlorotUniform", "config": {"dtype": "float32", "seed": null}}, "bias_initializer": {"class_name": "Zeros", "config": {"dtype": "float32"}}, "depthwise_regularizer": null, "use_bias": false, "activity_regularizer": null, "kernel_size": [3, 3]}, "name": "block_12_depthwise"}, {"class_name": "BatchNormalization", "inbound_nodes": [[["block_12_depthwise", 0, 0, {}]]], "config": {"gamma_initializer": {"class_name": "Ones", "config": {"dtype": "float32"}}, "moving_mean_initializer": {"class_name": "Zeros", "config": {"dtype": "float32"}}, "name": "block_12_depthwise_BN", "gamma_regularizer": null, "dtype": "float32", "trainable": false, "center": true, "moving_variance_initializer": {"class_name": "Ones", "config": {"dtype": "float32"}}, "beta_initializer": {"class_name": "Zeros", "config": {"dtype": "float32"}}, "scale": true, "epsilon": 0.001, "gamma_constraint": null, "beta_constraint": null, "beta_regularizer": null, "momentum": 0.999, "axis": [3]}, "name": "block_12_depthwise_BN"}, {"class_name": "ReLU", "inbound_nodes": [[["block_12_depthwise_BN", 0, 0, {}]]], "config": {"name": "block_12_depthwise_relu", "dtype": "float32", "trainable": false, "max_value": 6.0, "threshold": 0.0, "negative_slope": 0.0}, "name": "block_12_depthwise_relu"}, {"class_name": "Conv2D", "inbound_nodes": [[["block_12_depthwise_relu", 0, 0, {}]]], "config": {"kernel_initializer": {"class_name": "GlorotUniform", "config": {"dtype": "float32", "seed": null}}, "name": "block_12_project", "kernel_constraint": null, "bias_regularizer": null, "bias_constraint": null, "dtype": "float32", "activation": "linear", "trainable": false, "data_format": "channels_last", "padding": "same", "strides": [1, 1], "dilation_rate": [1, 1], "kernel_regularizer": null, "filters": 96, "bias_initializer": {"class_name": "Zeros", "config": {"dtype": "float32"}}, "use_bias": false, "activity_regularizer": null, "kernel_size": [1, 1]}, "name": "block_12_project"}, {"class_name": "BatchNormalization", "inbound_nodes": [[["block_12_project", 0, 0, {}]]], "config": {"gamma_initializer": {"class_name": "Ones", "config": {"dtype": "float32"}}, "moving_mean_initializer": {"class_name": "Zeros", "config": {"dtype": "float32"}}, "name": "block_12_project_BN", "gamma_regularizer": null, "dtype": "float32", "trainable": false, "center": true, "moving_variance_initializer": {"class_name": "Ones", "config": {"dtype": "float32"}}, "beta_initializer": {"class_name": "Zeros", "config": {"dtype": "float32"}}, "scale": true, "epsilon": 0.001, "gamma_constraint": null, "beta_constraint": null, "beta_regularizer": null, "momentum": 0.999, "axis": [3]}, "name": "block_12_project_BN"}, {"class_name": "Add", "inbound_nodes": [[["block_11_add", 0, 0, {}], ["block_12_project_BN", 0, 0, {}]]], "config": {"dtype": "float32", "trainable": false, "name": "block_12_add"}, "name": "block_12_add"}, {"class_name": "Conv2D", "inbound_nodes": [[["block_12_add", 0, 0, {}]]], "config": {"kernel_initializer": {"class_name": "GlorotUniform", "config": {"dtype": "float32", "seed": null}}, "name": "block_13_expand", "kernel_constraint": null, "bias_regularizer": null, "bias_constraint": null, "dtype": "float32", "activation": "linear", "trainable": false, "data_format": "channels_last", "padding": "same", "strides": [1, 1], "dilation_rate": [1, 1], "kernel_regularizer": null, "filters": 576, "bias_initializer": {"class_name": "Zeros", "config": {"dtype": "float32"}}, "use_bias": false, "activity_regularizer": null, "kernel_size": [1, 1]}, "name": "block_13_expand"}, {"class_name": "BatchNormalization", "inbound_nodes": [[["block_13_expand", 0, 0, {}]]], "config": {"gamma_initializer": {"class_name": "Ones", "config": {"dtype": "float32"}}, "moving_mean_initializer": {"class_name": "Zeros", "config": {"dtype": "float32"}}, "name": "block_13_expand_BN", "gamma_regularizer": null, "dtype": "float32", "trainable": false, "center": true, "moving_variance_initializer": {"class_name": "Ones", "config": {"dtype": "float32"}}, "beta_initializer": {"class_name": "Zeros", "config": {"dtype": "float32"}}, "scale": true, "epsilon": 0.001, "gamma_constraint": null, "beta_constraint": null, "beta_regularizer": null, "momentum": 0.999, "axis": [3]}, "name": "block_13_expand_BN"}, {"class_name": "ReLU", "inbound_nodes": [[["block_13_expand_BN", 0, 0, {}]]], "config": {"name": "block_13_expand_relu", "dtype": "float32", "trainable": false, "max_value": 6.0, "threshold": 0.0, "negative_slope": 0.0}, "name": "block_13_expand_relu"}, {"class_name": "ZeroPadding2D", "inbound_nodes": [[["block_13_expand_relu", 0, 0, {}]]], "config": {"padding": [[0, 1], [0, 1]], "dtype": "float32", "trainable": false, "name": "block_13_pad", "data_format": "channels_last"}, "name": "block_13_pad"}, {"class_name": "DepthwiseConv2D", "inbound_nodes": [[["block_13_pad", 0, 0, {}]]], "config": {"depth_multiplier": 1, "name": "block_13_depthwise", "bias_regularizer": null, "bias_constraint": null, "dtype": "float32", "activation": "linear", "trainable": false, "depthwise_constraint": null, "data_format": "channels_last", "padding": "valid", "strides": [2, 2], "dilation_rate": [1, 1], "depthwise_initializer": {"class_name": "GlorotUniform", "config": {"dtype": "float32", "seed": null}}, "bias_initializer": {"class_name": "Zeros", "config": {"dtype": "float32"}}, "depthwise_regularizer": null, "use_bias": false, "activity_regularizer": null, "kernel_size": [3, 3]}, "name": "block_13_depthwise"}, {"class_name": "BatchNormalization", "inbound_nodes": [[["block_13_depthwise", 0, 0, {}]]], "config": {"gamma_initializer": {"class_name": "Ones", "config": {"dtype": "float32"}}, "moving_mean_initializer": {"class_name": "Zeros", "config": {"dtype": "float32"}}, "name": "block_13_depthwise_BN", "gamma_regularizer": null, "dtype": "float32", "trainable": false, "center": true, "moving_variance_initializer": {"class_name": "Ones", "config": {"dtype": "float32"}}, "beta_initializer": {"class_name": "Zeros", "config": {"dtype": "float32"}}, "scale": true, "epsilon": 0.001, "gamma_constraint": null, "beta_constraint": null, "beta_regularizer": null, "momentum": 0.999, "axis": [3]}, "name": "block_13_depthwise_BN"}, {"class_name": "ReLU", "inbound_nodes": [[["block_13_depthwise_BN", 0, 0, {}]]], "config": {"name": "block_13_depthwise_relu", "dtype": "float32", "trainable": false, "max_value": 6.0, "threshold": 0.0, "negative_slope": 0.0}, "name": "block_13_depthwise_relu"}, {"class_name": "Conv2D", "inbound_nodes": [[["block_13_depthwise_relu", 0, 0, {}]]], "config": {"kernel_initializer": {"class_name": "GlorotUniform", "config": {"dtype": "float32", "seed": null}}, "name": "block_13_project", "kernel_constraint": null, "bias_regularizer": null, "bias_constraint": null, "dtype": "float32", "activation": "linear", "trainable": false, "data_format": "channels_last", "padding": "same", "strides": [1, 1], "dilation_rate": [1, 1], "kernel_regularizer": null, "filters": 160, "bias_initializer": {"class_name": "Zeros", "config": {"dtype": "float32"}}, "use_bias": false, "activity_regularizer": null, "kernel_size": [1, 1]}, "name": "block_13_project"}, {"class_name": "BatchNormalization", "inbound_nodes": [[["block_13_project", 0, 0, {}]]], "config": {"gamma_initializer": {"class_name": "Ones", "config": {"dtype": "float32"}}, "moving_mean_initializer": {"class_name": "Zeros", "config": {"dtype": "float32"}}, "name": "block_13_project_BN", "gamma_regularizer": null, "dtype": "float32", "trainable": false, "center": true, "moving_variance_initializer": {"class_name": "Ones", "config": {"dtype": "float32"}}, "beta_initializer": {"class_name": "Zeros", "config": {"dtype": "float32"}}, "scale": true, "epsilon": 0.001, "gamma_constraint": null, "beta_constraint": null, "beta_regularizer": null, "momentum": 0.999, "axis": [3]}, "name": "block_13_project_BN"}, {"class_name": "Conv2D", "inbound_nodes": [[["block_13_project_BN", 0, 0, {}]]], "config": {"kernel_initializer": {"class_name": "GlorotUniform", "config": {"dtype": "float32", "seed": null}}, "name": "block_14_expand", "kernel_constraint": null, "bias_regularizer": null, "bias_constraint": null, "dtype": "float32", "activation": "linear", "trainable": false, "data_format": "channels_last", "padding": "same", "strides": [1, 1], "dilation_rate": [1, 1], "kernel_regularizer": null, "filters": 960, "bias_initializer": {"class_name": "Zeros", "config": {"dtype": "float32"}}, "use_bias": false, "activity_regularizer": null, "kernel_size": [1, 1]}, "name": "block_14_expand"}, {"class_name": "BatchNormalization", "inbound_nodes": [[["block_14_expand", 0, 0, {}]]], "config": {"gamma_initializer": {"class_name": "Ones", "config": {"dtype": "float32"}}, "moving_mean_initializer": {"class_name": "Zeros", "config": {"dtype": "float32"}}, "name": "block_14_expand_BN", "gamma_regularizer": null, "dtype": "float32", "trainable": false, "center": true, "moving_variance_initializer": {"class_name": "Ones", "config": {"dtype": "float32"}}, "beta_initializer": {"class_name": "Zeros", "config": {"dtype": "float32"}}, "scale": true, "epsilon": 0.001, "gamma_constraint": null, "beta_constraint": null, "beta_regularizer": null, "momentum": 0.999, "axis": [3]}, "name": "block_14_expand_BN"}, {"class_name": "ReLU", "inbound_nodes": [[["block_14_expand_BN", 0, 0, {}]]], "config": {"name": "block_14_expand_relu", "dtype": "float32", "trainable": false, "max_value": 6.0, "threshold": 0.0, "negative_slope": 0.0}, "name": "block_14_expand_relu"}, {"class_name": "DepthwiseConv2D", "inbound_nodes": [[["block_14_expand_relu", 0, 0, {}]]], "config": {"depth_multiplier": 1, "name": "block_14_depthwise", "bias_regularizer": null, "bias_constraint": null, "dtype": "float32", "activation": "linear", "trainable": false, "depthwise_constraint": null, "data_format": "channels_last", "padding": "same", "strides": [1, 1], "dilation_rate": [1, 1], "depthwise_initializer": {"class_name": "GlorotUniform", "config": {"dtype": "float32", "seed": null}}, "bias_initializer": {"class_name": "Zeros", "config": {"dtype": "float32"}}, "depthwise_regularizer": null, "use_bias": false, "activity_regularizer": null, "kernel_size": [3, 3]}, "name": "block_14_depthwise"}, {"class_name": "BatchNormalization", "inbound_nodes": [[["block_14_depthwise", 0, 0, {}]]], "config": {"gamma_initializer": {"class_name": "Ones", "config": {"dtype": "float32"}}, "moving_mean_initializer": {"class_name": "Zeros", "config": {"dtype": "float32"}}, "name": "block_14_depthwise_BN", "gamma_regularizer": null, "dtype": "float32", "trainable": false, "center": true, "moving_variance_initializer": {"class_name": "Ones", "config": {"dtype": "float32"}}, "beta_initializer": {"class_name": "Zeros", "config": {"dtype": "float32"}}, "scale": true, "epsilon": 0.001, "gamma_constraint": null, "beta_constraint": null, "beta_regularizer": null, "momentum": 0.999, "axis": [3]}, "name": "block_14_depthwise_BN"}, {"class_name": "ReLU", "inbound_nodes": [[["block_14_depthwise_BN", 0, 0, {}]]], "config": {"name": "block_14_depthwise_relu", "dtype": "float32", "trainable": false, "max_value": 6.0, "threshold": 0.0, "negative_slope": 0.0}, "name": "block_14_depthwise_relu"}, {"class_name": "Conv2D", "inbound_nodes": [[["block_14_depthwise_relu", 0, 0, {}]]], "config": {"kernel_initializer": {"class_name": "GlorotUniform", "config": {"dtype": "float32", "seed": null}}, "name": "block_14_project", "kernel_constraint": null, "bias_regularizer": null, "bias_constraint": null, "dtype": "float32", "activation": "linear", "trainable": false, "data_format": "channels_last", "padding": "same", "strides": [1, 1], "dilation_rate": [1, 1], "kernel_regularizer": null, "filters": 160, "bias_initializer": {"class_name": "Zeros", "config": {"dtype": "float32"}}, "use_bias": false, "activity_regularizer": null, "kernel_size": [1, 1]}, "name": "block_14_project"}, {"class_name": "BatchNormalization", "inbound_nodes": [[["block_14_project", 0, 0, {}]]], "config": {"gamma_initializer": {"class_name": "Ones", "config": {"dtype": "float32"}}, "moving_mean_initializer": {"class_name": "Zeros", "config": {"dtype": "float32"}}, "name": "block_14_project_BN", "gamma_regularizer": null, "dtype": "float32", "trainable": false, "center": true, "moving_variance_initializer": {"class_name": "Ones", "config": {"dtype": "float32"}}, "beta_initializer": {"class_name": "Zeros", "config": {"dtype": "float32"}}, "scale": true, "epsilon": 0.001, "gamma_constraint": null, "beta_constraint": null, "beta_regularizer": null, "momentum": 0.999, "axis": [3]}, "name": "block_14_project_BN"}, {"class_name": "Add", "inbound_nodes": [[["block_13_project_BN", 0, 0, {}], ["block_14_project_BN", 0, 0, {}]]], "config": {"dtype": "float32", "trainable": false, "name": "block_14_add"}, "name": "block_14_add"}, {"class_name": "Conv2D", "inbound_nodes": [[["block_14_add", 0, 0, {}]]], "config": {"kernel_initializer": {"class_name": "GlorotUniform", "config": {"dtype": "float32", "seed": null}}, "name": "block_15_expand", "kernel_constraint": null, "bias_regularizer": null, "bias_constraint": null, "dtype": "float32", "activation": "linear", "trainable": false, "data_format": "channels_last", "padding": "same", "strides": [1, 1], "dilation_rate": [1, 1], "kernel_regularizer": null, "filters": 960, "bias_initializer": {"class_name": "Zeros", "config": {"dtype": "float32"}}, "use_bias": false, "activity_regularizer": null, "kernel_size": [1, 1]}, "name": "block_15_expand"}, {"class_name": "BatchNormalization", "inbound_nodes": [[["block_15_expand", 0, 0, {}]]], "config": {"gamma_initializer": {"class_name": "Ones", "config": {"dtype": "float32"}}, "moving_mean_initializer": {"class_name": "Zeros", "config": {"dtype": "float32"}}, "name": "block_15_expand_BN", "gamma_regularizer": null, "dtype": "float32", "trainable": false, "center": true, "moving_variance_initializer": {"class_name": "Ones", "config": {"dtype": "float32"}}, "beta_initializer": {"class_name": "Zeros", "config": {"dtype": "float32"}}, "scale": true, "epsilon": 0.001, "gamma_constraint": null, "beta_constraint": null, "beta_regularizer": null, "momentum": 0.999, "axis": [3]}, "name": "block_15_expand_BN"}, {"class_name": "ReLU", "inbound_nodes": [[["block_15_expand_BN", 0, 0, {}]]], "config": {"name": "block_15_expand_relu", "dtype": "float32", "trainable": false, "max_value": 6.0, "threshold": 0.0, "negative_slope": 0.0}, "name": "block_15_expand_relu"}, {"class_name": "DepthwiseConv2D", "inbound_nodes": [[["block_15_expand_relu", 0, 0, {}]]], "config": {"depth_multiplier": 1, "name": "block_15_depthwise", "bias_regularizer": null, "bias_constraint": null, "dtype": "float32", "activation": "linear", "trainable": false, "depthwise_constraint": null, "data_format": "channels_last", "padding": "same", "strides": [1, 1], "dilation_rate": [1, 1], "depthwise_initializer": {"class_name": "GlorotUniform", "config": {"dtype": "float32", "seed": null}}, "bias_initializer": {"class_name": "Zeros", "config": {"dtype": "float32"}}, "depthwise_regularizer": null, "use_bias": false, "activity_regularizer": null, "kernel_size": [3, 3]}, "name": "block_15_depthwise"}, {"class_name": "BatchNormalization", "inbound_nodes": [[["block_15_depthwise", 0, 0, {}]]], "config": {"gamma_initializer": {"class_name": "Ones", "config": {"dtype": "float32"}}, "moving_mean_initializer": {"class_name": "Zeros", "config": {"dtype": "float32"}}, "name": "block_15_depthwise_BN", "gamma_regularizer": null, "dtype": "float32", "trainable": false, "center": true, "moving_variance_initializer": {"class_name": "Ones", "config": {"dtype": "float32"}}, "beta_initializer": {"class_name": "Zeros", "config": {"dtype": "float32"}}, "scale": true, "epsilon": 0.001, "gamma_constraint": null, "beta_constraint": null, "beta_regularizer": null, "momentum": 0.999, "axis": [3]}, "name": "block_15_depthwise_BN"}, {"class_name": "ReLU", "inbound_nodes": [[["block_15_depthwise_BN", 0, 0, {}]]], "config": {"name": "block_15_depthwise_relu", "dtype": "float32", "trainable": false, "max_value": 6.0, "threshold": 0.0, "negative_slope": 0.0}, "name": "block_15_depthwise_relu"}, {"class_name": "Conv2D", "inbound_nodes": [[["block_15_depthwise_relu", 0, 0, {}]]], "config": {"kernel_initializer": {"class_name": "GlorotUniform", "config": {"dtype": "float32", "seed": null}}, "name": "block_15_project", "kernel_constraint": null, "bias_regularizer": null, "bias_constraint": null, "dtype": "float32", "activation": "linear", "trainable": false, "data_format": "channels_last", "padding": "same", "strides": [1, 1], "dilation_rate": [1, 1], "kernel_regularizer": null, "filters": 160, "bias_initializer": {"class_name": "Zeros", "config": {"dtype": "float32"}}, "use_bias": false, "activity_regularizer": null, "kernel_size": [1, 1]}, "name": "block_15_project"}, {"class_name": "BatchNormalization", "inbound_nodes": [[["block_15_project", 0, 0, {}]]], "config": {"gamma_initializer": {"class_name": "Ones", "config": {"dtype": "float32"}}, "moving_mean_initializer": {"class_name": "Zeros", "config": {"dtype": "float32"}}, "name": "block_15_project_BN", "gamma_regularizer": null, "dtype": "float32", "trainable": false, "center": true, "moving_variance_initializer": {"class_name": "Ones", "config": {"dtype": "float32"}}, "beta_initializer": {"class_name": "Zeros", "config": {"dtype": "float32"}}, "scale": true, "epsilon": 0.001, "gamma_constraint": null, "beta_constraint": null, "beta_regularizer": null, "momentum": 0.999, "axis": [3]}, "name": "block_15_project_BN"}, {"class_name": "Add", "inbound_nodes": [[["block_14_add", 0, 0, {}], ["block_15_project_BN", 0, 0, {}]]], "config": {"dtype": "float32", "trainable": false, "name": "block_15_add"}, "name": "block_15_add"}, {"class_name": "Conv2D", "inbound_nodes": [[["block_15_add", 0, 0, {}]]], "config": {"kernel_initializer": {"class_name": "GlorotUniform", "config": {"dtype": "float32", "seed": null}}, "name": "block_16_expand", "kernel_constraint": null, "bias_regularizer": null, "bias_constraint": null, "dtype": "float32", "activation": "linear", "trainable": false, "data_format": "channels_last", "padding": "same", "strides": [1, 1], "dilation_rate": [1, 1], "kernel_regularizer": null, "filters": 960, "bias_initializer": {"class_name": "Zeros", "config": {"dtype": "float32"}}, "use_bias": false, "activity_regularizer": null, "kernel_size": [1, 1]}, "name": "block_16_expand"}, {"class_name": "BatchNormalization", "inbound_nodes": [[["block_16_expand", 0, 0, {}]]], "config": {"gamma_initializer": {"class_name": "Ones", "config": {"dtype": "float32"}}, "moving_mean_initializer": {"class_name": "Zeros", "config": {"dtype": "float32"}}, "name": "block_16_expand_BN", "gamma_regularizer": null, "dtype": "float32", "trainable": false, "center": true, "moving_variance_initializer": {"class_name": "Ones", "config": {"dtype": "float32"}}, "beta_initializer": {"class_name": "Zeros", "config": {"dtype": "float32"}}, "scale": true, "epsilon": 0.001, "gamma_constraint": null, "beta_constraint": null, "beta_regularizer": null, "momentum": 0.999, "axis": [3]}, "name": "block_16_expand_BN"}, {"class_name": "ReLU", "inbound_nodes": [[["block_16_expand_BN", 0, 0, {}]]], "config": {"name": "block_16_expand_relu", "dtype": "float32", "trainable": false, "max_value": 6.0, "threshold": 0.0, "negative_slope": 0.0}, "name": "block_16_expand_relu"}, {"class_name": "DepthwiseConv2D", "inbound_nodes": [[["block_16_expand_relu", 0, 0, {}]]], "config": {"depth_multiplier": 1, "name": "block_16_depthwise", "bias_regularizer": null, "bias_constraint": null, "dtype": "float32", "activation": "linear", "trainable": false, "depthwise_constraint": null, "data_format": "channels_last", "padding": "same", "strides": [1, 1], "dilation_rate": [1, 1], "depthwise_initializer": {"class_name": "GlorotUniform", "config": {"dtype": "float32", "seed": null}}, "bias_initializer": {"class_name": "Zeros", "config": {"dtype": "float32"}}, "depthwise_regularizer": null, "use_bias": false, "activity_regularizer": null, "kernel_size": [3, 3]}, "name": "block_16_depthwise"}, {"class_name": "BatchNormalization", "inbound_nodes": [[["block_16_depthwise", 0, 0, {}]]], "config": {"gamma_initializer": {"class_name": "Ones", "config": {"dtype": "float32"}}, "moving_mean_initializer": {"class_name": "Zeros", "config": {"dtype": "float32"}}, "name": "block_16_depthwise_BN", "gamma_regularizer": null, "dtype": "float32", "trainable": false, "center": true, "moving_variance_initializer": {"class_name": "Ones", "config": {"dtype": "float32"}}, "beta_initializer": {"class_name": "Zeros", "config": {"dtype": "float32"}}, "scale": true, "epsilon": 0.001, "gamma_constraint": null, "beta_constraint": null, "beta_regularizer": null, "momentum": 0.999, "axis": [3]}, "name": "block_16_depthwise_BN"}, {"class_name": "ReLU", "inbound_nodes": [[["block_16_depthwise_BN", 0, 0, {}]]], "config": {"name": "block_16_depthwise_relu", "dtype": "float32", "trainable": false, "max_value": 6.0, "threshold": 0.0, "negative_slope": 0.0}, "name": "block_16_depthwise_relu"}, {"class_name": "Conv2D", "inbound_nodes": [[["block_16_depthwise_relu", 0, 0, {}]]], "config": {"kernel_initializer": {"class_name": "GlorotUniform", "config": {"dtype": "float32", "seed": null}}, "name": "block_16_project", "kernel_constraint": null, "bias_regularizer": null, "bias_constraint": null, "dtype": "float32", "activation": "linear", "trainable": false, "data_format": "channels_last", "padding": "same", "strides": [1, 1], "dilation_rate": [1, 1], "kernel_regularizer": null, "filters": 320, "bias_initializer": {"class_name": "Zeros", "config": {"dtype": "float32"}}, "use_bias": false, "activity_regularizer": null, "kernel_size": [1, 1]}, "name": "block_16_project"}, {"class_name": "BatchNormalization", "inbound_nodes": [[["block_16_project", 0, 0, {}]]], "config": {"gamma_initializer": {"class_name": "Ones", "config": {"dtype": "float32"}}, "moving_mean_initializer": {"class_name": "Zeros", "config": {"dtype": "float32"}}, "name": "block_16_project_BN", "gamma_regularizer": null, "dtype": "float32", "trainable": false, "center": true, "moving_variance_initializer": {"class_name": "Ones", "config": {"dtype": "float32"}}, "beta_initializer": {"class_name": "Zeros", "config": {"dtype": "float32"}}, "scale": true, "epsilon": 0.001, "gamma_constraint": null, "beta_constraint": null, "beta_regularizer": null, "momentum": 0.999, "axis": [3]}, "name": "block_16_project_BN"}, {"class_name": "Conv2D", "inbound_nodes": [[["block_16_project_BN", 0, 0, {}]]], "config": {"kernel_initializer": {"class_name": "GlorotUniform", "config": {"dtype": "float32", "seed": null}}, "name": "Conv_1", "kernel_constraint": null, "bias_regularizer": null, "bias_constraint": null, "dtype": "float32", "activation": "linear", "trainable": false, "data_format": "channels_last", "padding": "valid", "strides": [1, 1], "dilation_rate": [1, 1], "kernel_regularizer": null, "filters": 1280, "bias_initializer": {"class_name": "Zeros", "config": {"dtype": "float32"}}, "use_bias": false, "activity_regularizer": null, "kernel_size": [1, 1]}, "name": "Conv_1"}, {"class_name": "BatchNormalization", "inbound_nodes": [[["Conv_1", 0, 0, {}]]], "config": {"gamma_initializer": {"class_name": "Ones", "config": {"dtype": "float32"}}, "moving_mean_initializer": {"class_name": "Zeros", "config": {"dtype": "float32"}}, "name": "Conv_1_bn", "gamma_regularizer": null, "dtype": "float32", "trainable": false, "center": true, "moving_variance_initializer": {"class_name": "Ones", "config": {"dtype": "float32"}}, "beta_initializer": {"class_name": "Zeros", "config": {"dtype": "float32"}}, "scale": true, "epsilon": 0.001, "gamma_constraint": null, "beta_constraint": null, "beta_regularizer": null, "momentum": 0.999, "axis": [3]}, "name": "Conv_1_bn"}, {"class_name": "ReLU", "inbound_nodes": [[["Conv_1_bn", 0, 0, {}]]], "config": {"name": "out_relu", "dtype": "float32", "trainable": false, "max_value": 6.0, "threshold": 0.0, "negative_slope": 0.0}, "name": "out_relu"}], "input_layers": [["input_1", 0, 0]], "name": "mobilenetv2_1.00_160", "output_layers": [["out_relu", 0, 0]]}}, {"class_name": "GlobalAveragePooling2D", "config": {"dtype": "float32", "trainable": true, "name": "global_average_pooling2d", "data_format": "channels_last"}}, {"class_name": "Dense", "config": {"kernel_initializer": {"class_name": "GlorotUniform", "config": {"dtype": "float32", "seed": null}}, "name": "dense", "kernel_constraint": null, "bias_regularizer": null, "bias_constraint": null, "dtype": "float32", "activation": "linear", "trainable": true, "kernel_regularizer": null, "bias_initializer": {"class_name": "Zeros", "config": {"dtype": "float32"}}, "units": 3, "use_bias": true, "activity_regularizer": null}}], "name": "sequential"}, "backend": "tensorflow"}